SecretaryProblem_UnityEnv/Assets/Config/results/Case_1/Case_1/Case_1-21.pt (torch, 145836 bytes, 11 tensors)

network_body._body_endoder.seq_layers.0.weight f4 [128, 3]
0	0x3f4e3e9f	0.805643
1	0x3e970389	0.29494885
2	0xbf67169d	-0.9026888
3	0xbd6a72ba	-0.057238318
4	0x3f0a16f9	0.53941303
5	0x3e422468	0.189592
6	0x3f0432b2	0.51639855
7	0xbedcb404	-0.4310609
8	0x3eb96327	0.3620846
9	0xbe98626e	-0.29762596
10	0x3ec78292	0.38966805
11	0x3f9ed2af	1.2408046
12	0xbe87b0ca	-0.26502067
13	0xbdc9e2c1	-0.09857703
14	0x3e92d7ee	0.28680366
15	0xbf1bfeff	-0.6093597
16	0x3e73d88d	0.23813076
17	0x3e48a3cd	0.19593735
18	0xbf4e3cf9	-0.80561787
19	0xbf2a32bf	-0.6648368
20	0xbeb809d7	-0.35945007
21	0xbf888439	-1.0665351
22	0xbf02b81a	-0.51062167
23	0xbe5c2c1e	-0.21501204
24	0xbf8506a7	-1.0392655
25	0xbefee113	-0.49781093
26	0xbf0fc1f8	-0.5615535
27	0xbdc19a8d	-0.09453306
28	0xbec00210	-0.37501574
29	0xbf5f30f2	-0.8718406
30	0xbe70e39a	-0.23524323
31	0xbefaef69	-0.4901078
32	0xbf208afc	-0.62712073
33	0x3ea8f819	0.33001783
34	0x3f2667db	0.6500222
35	0x3ea82558	0.3284099
36	0x3ef2d263	0.47426137
37	0xbd8429ff	-0.064533226
38	0x3f23457d	0.63777906
39	0x3eb4615d	0.35230532
40	0x401ef2bc	2.4835653
41	0x3e2839ad	0.16428252
42	0x3e83ca58	0.25740314
43	0xbe968c11	-0.29403737
44	0x3ed79f07	0.42113516
45	0xbf1df8db	-0.6170785
46	0x3ea0ad76	0.3138234
47	0x3f75a014	0.95947385
48	0xbf6cdd96	-0.92525613
49	0xbe9d00ac	-0.30664575
50	0x3cfd7a75	0.030942181
51	0xbf707857	-0.93933624
52	0x3eaf0a63	0.34187612
53	0xbe303ea4	-0.17211396
54	0x3f60b9ec	0.87783694
55	0xbf690b85	-0.910332
56	0xbe5f4c2b	-0.218064
57	0xbf19b14c	-0.6003616
58	0x3e219deb	0.15782897
59	0x3e6ae5ee	0.22939274
60	0xbfe34b1d	-1.7757298
61	0xbf2af619	-0.66781765
62	0xbf2f39f2	-0.6844779
63	0x3d65ad5b	0.056073528
64	0x3c558e05	0.013034348
65	0x3d4bd534	0.049763873
66	0xbf0adcfa	-0.54243433
67	0x3e852db2	0.26011425
68	0xbe7ce072	-0.24694994
69	0xbeaa5419	-0.33267286
70	0x3ea5e9f3	0.32405052
71	0x3f3e1589	0.7425161
72	0x3f2a9cf3	0.66645736
73	0xbe9d154a	-0.30680305
74	0x3f83d661	1.0299798
75	0xbc64d3a1	-0.013966472
76	0xbe8a7f5e	-0.27050298
77	0x4001b8f9	2.0269148
78	0x3faf15bb	1.3678507
79	0xbe862247	-0.26198027
80	0x3e6e0c6e	0.23246929
81	0xbf869428	-1.0513964
82	0x3f8a342e	1.0797174
83	0x3f6b0fd3	0.9182102
84	0x3fc9b323	1.5757793
85	0x3f388b99	0.7208801
86	0x3d3d29df	0.04618251
87	0xbeb487a2	-0.3525973
88	0x3cd3e1d9	0.025864528
89	0xbe36dbfe	-0.17857358
90	0x3e7082b9	0.23487367
91	0x3f07b872	0.53015816
92	0xbe9feb35	-0.31234136
93	0x3cfe141c	0.031015448
94	0x3e8645c5	0.26225105
95	0xbdb048a5	-0.08607606
96	0x3f03be44	0.514622
97	0x3dc4ae04	0.09603503
98	0x3f1cf6e7	0.61314243
99	0x3e586cc7	0.21135245
100	0xbea55c51	-0.32296994
101	0x3f0a667c	0.5406263
102	0x3eabf210	0.33583117
103	0xbd4421df	-0.047883864
104	0xbf13ab19	-0.5768295
105	0x3f838f47	1.02781
106	0xbbdf2441	-0.0068097417
107	0x3f8a6f53	1.0815223
108	0x3e2439db	0.16037695
109	0xbec85022	-0.39123636
110	0x3f01f2b9	0.5076099
111	0x3ddfe6ac	0.10932669
112	0x3e661b73	0.22471409
113	0x3f700ee1	0.93772703
114	0x3d03e901	0.03220463
115	0xbe4d7835	-0.20065387
116	0xbfa376b2	-1.2770598
117	0xbe86f935	-0.26362005
118	0x3f2f5441	0.68487936
119	0x3e3b4fe8	0.182922
120	0x3ee9f48f	0.45694396
121	0x3f91ebb1	1.1400052
122	0xbee7cf40	-0.45275307
123	0xbf48f3b2	-0.7849685
124	0x3f8cf6d3	1.1012825
125	0xbf5dff31	-0.86717516
126	0xbdd37bfd	-0.10326383
127	0xbefc89d9	-0.4932392
128	0x3f1c44d3	0.6104252
129	0x3ed9c50b	0.42533144
130	0x3dd5581d	0.10417197
131	0xbf4690f6	-0.7756494
132	0x3d0f161b	0.03493319
133	0xbde4b317	-0.11166971
134	0xbe718497	-0.23585735
135	0x3f63ec54	0.89032483
136	0xbf0a7a2e	-0.5409268
137	0xbf1c4b7e	-0.6105269
138	0xbdc22678	-0.094799936
139	0x3e438077	0.19091974
140	0x3f90978d	1.129625
141	0xbd8d1b66	-0.068899915
142	0x3e111e38	0.14171684
143	0x3f8a9313	1.0826133
144	0x3d8aaf94	0.0677177
145	0x3df89c21	0.12139154
146	0xbf1ce065	-0.612799
147	0xbeb181d8	-0.34669375
148	0xbe94f480	-0.2909279
149	0xbe9038b8	-0.28168273
150	0xbe0e0ba1	-0.13871624
151	0xbd60cfc7	-0.054885652
152	0xbfaa43cc	-1.330194
153	0x3fb64053	1.423838
154	0xbe8a1e53	-0.2697626
155	0x3f7e6334	0.9937012
156	0x3f5b30e8	0.856215
157	0x3f3ee135	0.7456239
158	0xbd9cec65	-0.07662276
159	0xbf935f17	-1.1513394
160	0xbe521407	-0.20515452
161	0x3e6b0e56	0.22954687
162	0xbf587161	-0.84548
163	0x3e386e79	0.18010892
164	0xbe18f239	-0.1493615
165	0xbdc20047	-0.09472709
166	0x3ee4b517	0.4466941
167	0xbe4edd40	-0.20201588
168	0x3d9cb19c	0.07651064
169	0x3e2442c7	0.16041099
170	0x3e6cfd4b	0.23143499
171	0xbf9a12ee	-1.2037027
172	0xbeec9474	-0.4620701
173	0x3f157ad0	0.5839052
174	0xbd96b77e	-0.07359217
175	0xbe625f59	-0.22106685
176	0x3f466708	0.77500963
177	0x3e1b2873	0.15152149
178	0xbee4e3b6	-0.4470498
179	0xbe6ed010	-0.23321557
180	0xbbc2df39	-0.0059470204
181	0x3e8a3be7	0.26998827
182	0xbe32783f	-0.17428683
183	0x3e7dd4ce	0.2478821
184	0x3e6409ef	0.22269414
185	0x3f6451d9	0.8918739
186	0x3f57a9ee	0.8424367
187	0xbf2807f7	-0.65637153
188	0x3ec939e9	0.39301994
189	0x3f28bcb1	0.6591292
190	0x3e4f7898	0.20260847
191	0xbe59d265	-0.21271665
192	0x3e1237e7	0.14279138
193	0xbf3f86c9	-0.7481504
194	0xbeb2052a	-0.34769565
195	0xbbabfeff	-0.0052489038
196	0xbea9c82d	-0.33160535
197	0x3f669f7d	0.9008711
198	0x3e4d6627	0.200585
199	0xbe75e323	-0.24012427
200	0x3c6aa05f	0.014320462
201	0x3e320f95	0.17388757
202	0x3f541df4	0.82858205
203	0x3ed99411	0.42495778
204	0xbef95f55	-0.48705545
205	0xbf17b6d4	-0.5926335
206	0xbf33dc03	-0.70257586
207	0x3e6bfe34	0.2304619
208	0x3e861142	0.26185042
209	0xbed3e036	-0.41381997
210	0x3dba129e	0.09085582
211	0xbec7a3af	-0.38992068
212	0xbf3e5575	-0.7434915
213	0xbed48e34	-0.41514742
214	0xbe9cdcfe	-0.30637354
215	0x3f5c2bc3	0.86004275
216	0xbd868c67	-0.06569748
217	0xbf1465e1	-0.57967955
218	0x3fbb765a	1.4645493
219	0xbf37dea3	-0.7182409
220	0xbea8b7f8	-0.32952857
221	0xbe5160af	-0.20447038
222	0xbe7e7b7c	-0.24851793
223	0x3f6520cb	0.89503163
224	0x3e8edfc5	0.27905098
225	0xbec64cac	-0.3873037
226	0x3ee2d3eb	0.44302306
227	0xbeaaebfe	-0.33383173
228	0x3e49f2e7	0.19721566
229	0x3f39b295	0.7253812
230	0xbf1558f3	-0.5833885
231	0xbe5b21f8	-0.21399677
232	0xbe4b4bfd	-0.19853206
233	0x3f32b01b	0.69799966
234	0xbf415245	-0.7551616
235	0x3e95338f	0.291409
236	0xbe2625bd	-0.16225334
237	0x3e08fe49	0.13378252
238	0x3ea383f9	0.31936625
239	0x3f213546	0.62971914
240	0xbe2d0f42	-0.16900352
241	0xbe4408f6	-0.19144043
242	0xbf51f945	-0.8202098
243	0x3e6aba39	0.22922601
244	0xbf194bdf	-0.59881395
245	0x3f515408	0.81768847
246	0xbdfa3fb4	-0.12219182
247	0xbf8ee150	-1.116251
248	0x3d91d1d4	0.071201
249	0xbe951472	-0.2911716
250	0xbe0d7d11	-0.1381724
251	0xbfc0c0a7	-1.5058793
252	0x3dae7054	0.08517519
253	0x3f6f7e7e	0.93552387
254	0xbcfff019	-0.031242417
255	0xbfa22a48	-1.2669153

network_body._body_endoder.seq_layers.0.bias f4 [128]
0	0x00000000	0.0
1	0x00000000	0.0
2	0x00000000	0.0
3	0x00000000	0.0
4	0x00000000	0.0
5	0x00000000	0.0
6	0x00000000	0.0
7	0x00000000	0.0
8	0x00000000	0.0
9	0x00000000	0.0
10	0x00000000	0.0
11	0x00000000	0.0
12	0x00000000	0.0
13	0x00000000	0.0
14	0x00000000	0.0
15	0x00000000	0.0
16	0x00000000	0.0
17	0x00000000	0.0
18	0x00000000	0.0
19	0x00000000	0.0
20	0x00000000	0.0
21	0x00000000	0.0
22	0x00000000	0.0
23	0x00000000	0.0
24	0x00000000	0.0
25	0x00000000	0.0
26	0x00000000	0.0
27	0x00000000	0.0
28	0x00000000	0.0
29	0x00000000	0.0
30	0x00000000	0.0
31	0x00000000	0.0
32	0x00000000	0.0
33	0x00000000	0.0
34	0x00000000	0.0
35	0x00000000	0.0
36	0x00000000	0.0
37	0x00000000	0.0
38	0x00000000	0.0
39	0x00000000	0.0
40	0x00000000	0.0
41	0x00000000	0.0
42	0x00000000	0.0
43	0x00000000	0.0
44	0x00000000	0.0
45	0x00000000	0.0
46	0x00000000	0.0
47	0x00000000	0.0
48	0x00000000	0.0
49	0x00000000	0.0
50	0x00000000	0.0
51	0x00000000	0.0
52	0x00000000	0.0
53	0x00000000	0.0
54	0x00000000	0.0
55	0x00000000	0.0
56	0x00000000	0.0
57	0x00000000	0.0
58	0x00000000	0.0
59	0x00000000	0.0
60	0x00000000	0.0
61	0x00000000	0.0
62	0x00000000	0.0
63	0x00000000	0.0
64	0x00000000	0.0
65	0x00000000	0.0
66	0x00000000	0.0
67	0x00000000	0.0
68	0x00000000	0.0
69	0x00000000	0.0
70	0x00000000	0.0
71	0x00000000	0.0
72	0x00000000	0.0
73	0x00000000	0.0
74	0x00000000	0.0
75	0x00000000	0.0
76	0x00000000	0.0
77	0x00000000	0.0
78	0x00000000	0.0
79	0x00000000	0.0
80	0x00000000	0.0
81	0x00000000	0.0
82	0x00000000	0.0
83	0x00000000	0.0
84	0x00000000	0.0
85	0x00000000	0.0
86	0x00000000	0.0
87	0x00000000	0.0
88	0x00000000	0.0
89	0x00000000	0.0
90	0x00000000	0.0
91	0x00000000	0.0
92	0x00000000	0.0
93	0x00000000	0.0
94	0x00000000	0.0
95	0x00000000	0.0
96	0x00000000	0.0
97	0x00000000	0.0
98	0x00000000	0.0
99	0x00000000	0.0
100	0x00000000	0.0
101	0x00000000	0.0
102	0x00000000	0.0
103	0x00000000	0.0
104	0x00000000	0.0
105	0x00000000	0.0
106	0x00000000	0.0
107	0x00000000	0.0
108	0x00000000	0.0
109	0x00000000	0.0
110	0x00000000	0.0
111	0x00000000	0.0
112	0x00000000	0.0
113	0x00000000	0.0
114	0x00000000	0.0
115	0x00000000	0.0
116	0x00000000	0.0
117	0x00000000	0.0
118	0x00000000	0.0
119	0x00000000	0.0
120	0x00000000	0.0
121	0x00000000	0.0
122	0x00000000	0.0
123	0x00000000	0.0
124	0x00000000	0.0
125	0x00000000	0.0
126	0x00000000	0.0
127	0x00000000	0.0

network_body._body_endoder.seq_layers.2.weight f4 [128, 128]
0	0xbd874e43	-0.06606724
1	0x3c1b788a	0.009489188
2	0xbe391aa5	-0.1807657
3	0xbdecfefb	-0.11572071
4	0x3ddbc197	0.10730284
5	0x3e860494	0.26175368
6	0xbd6dbce4	-0.05804147
7	0x3e2fc593	0.17165212
8	0xbdf74e62	-0.12075497
9	0x3da6ce07	0.08144765
10	0xbd4af54d	-0.049550343
11	0x3e04f0bb	0.12982456
12	0x3df98bf8	0.121849
13	0xbe82aeb3	-0.2552391
14	0xbe236be3	-0.15959124
15	0xbce0e8ba	-0.027454723
16	0xbd1f5758	-0.038901657
17	0xbd227a89	-0.03966764
18	0xbd84e8ce	-0.064897165
19	0xbc1b41be	-0.009476123
20	0x3d421070	0.047378957
21	0x3c15e01a	0.009147668
22	0x3dfbbbe2	0.12291695
23	0xbc5c2e45	-0.013438766
24	0x3d0a3b16	0.033747755
25	0x3d732aec	0.059367105
26	0xbc4fc019	-0.012680077
27	0xbcfd894d	-0.03094926
28	0x3d69a142	0.057038553
29	0x3d2048e7	0.039132025
30	0x3dab2813	0.08357253
31	0x3bb40dfa	0.00549483
32	0x3d4058b9	0.046959613
33	0xbd25f0c5	-0.04051282
34	0xbe0333d2	-0.12812737
35	0xba575ad0	-0.0008215131
36	0xbc940921	-0.01807076
37	0x3e2157ae	0.15756103
38	0x3d24e03e	0.040252917
39	0xbde0ff7e	-0.10986231
40	0xbd8f5053	-0.069977425
41	0xbceb8b11	-0.028752835
42	0xbd8eca28	-0.06972152
43	0x3d6582f4	0.05603309
44	0x3d9000e5	0.070314206
45	0x3d8105d7	0.06299942
46	0xbd9e49e4	-0.07728937
47	0x3d099c2b	0.0335962
48	0xbc5a6e45	-0.013331954
49	0xbb1ad92b	-0.0023627977
50	0x3d3cd51a	0.046101667
51	0xbb54fb38	-0.003249837
52	0x3e1ef5b7	0.1552342
53	0xbce5b659	-0.028041052
54	0xbc7de195	-0.0154956775
55	0x3de3f9c2	0.11131622
56	0x3d2d6ff4	0.042343095
57	0x3d3fa38c	0.04678683
58	0x3de3c20d	0.111209966
59	0x3c3ebf1c	0.011642244
60	0x3d40ae18	0.04704103
61	0x3d5dc297	0.054140653
62	0x3d326df3	0.043561887
63	0xbdb56d4c	-0.08858737
64	0x3cca394b	0.024685523
65	0x3e1358a1	0.14389278
66	0xbc27fb57	-0.010252795
67	0xbe542983	-0.2071896
68	0x3dd80b49	0.105490275
69	0xbd5b51a4	-0.053544655
70	0x3de2768a	0.11057766
71	0xbe18a9d0	-0.14908528
72	0xbd58a83c	-0.052894816
73	0x3da50d0a	0.08059128
74	0x3d399d28	0.04531589
75	0x3dcc6c83	0.099816345
76	0x3c85a29c	0.01631289
77	0xbdeecc37	-0.11660045
78	0x3daff90d	0.085924245
79	0xbaebbb20	-0.0017984845
80	0xbc78af3d	-0.015178499
81	0x3df8d2cf	0.121495835
82	0xba31e6c3	-0.00067864003
83	0xbdd3a3b0	-0.10333955
84	0xbdf974ad	-0.12180457
85	0x3e3e12b9	0.1856183
86	0xbe225d35	-0.15855868
87	0xbbc02c75	-0.0058646747
88	0xbd56b652	-0.052419968
89	0xbdb26443	-0.0871053
90	0xbcc569cb	-0.024098298
91	0x3cf6bfda	0.030120779
92	0xbddd9239	-0.108189054
93	0x3d6143db	0.054996353
94	0xbe095d39	-0.13414468
95	0x3d8cce22	0.06875254
96	0xbd22b245	-0.039720792
97	0x3d9ae595	0.075633205
98	0xbd741991	-0.059594695
99	0x3d70a2d2	0.058749028
100	0x3da960bd	0.082704045
101	0x3cd94744	0.02652324
102	0x3c4a3f1a	0.012344146
103	0x3de41957	0.11137646
104	0x3d03edf7	0.032209363
105	0xbd97844a	-0.07398279
106	0xbb2bd7ed	-0.002622123
107	0xbd2158d3	-0.03939135
108	0xbd437203	-0.047716152
109	0x3cdd1c32	0.026990984
110	0xbe563f40	-0.20922565
111	0x3d38e65d	0.045141567
112	0x3eaec38c	0.34133565
113	0x3d68433c	0.056704745
114	0xbe18a9ea	-0.14908567
115	0xbd93c27a	-0.07214828
116	0x3d010b1a	0.031504728
117	0xbe2f6f8c	-0.17132396
118	0x3d867bbf	0.065665714
119	0x3cb1c92b	0.02170237
120	0xbdfb5ea6	-0.12273912
121	0x3db5ed88	0.08883196
122	0xbdb5d430	-0.08878362
123	0x3de0b3c8	0.109717906
124	0x3d834b20	0.06410813
125	0xbdb5807a	-0.088623956
126	0x3d431ea0	0.04763663
127	0x3d9641d4	0.073367745
128	0x3d6adb65	0.057338137
129	0xbe127aff	-0.14304732
130	0xbc790e2a	-0.015201131
131	0xbd267e37	-0.04064771
132	0x3d87491d	0.06605742
133	0xbdcee79b	-0.10102769
134	0x3c9e3e98	0.019316956
135	0x3ded3c56	0.11583774
136	0xbc454d58	-0.012042366
137	0x3cf48bc8	0.02985181
138	0x3d917ddf	0.07104086
139	0xbbc5d380	-0.0060371757
140	0x3e1f024a	0.15528217
141	0xbdcddff6	-0.10052483
142	0xbd21fc4a	-0.039547242
143	0xbdc4a3f3	-0.09601583
144	0x3dd038fb	0.10167118
145	0xbd1be909	-0.038064037
146	0xbdb31cd2	-0.087457314
147	0x3e15f7d9	0.14645328
148	0x3c3c8ff4	0.0115089305
149	0x3d91d840	0.071213245
150	0xbd8a9466	-0.06766586
151	0xbe0a9314	-0.13532668
152	0x3dd7f023	0.10543849
153	0xbdb9fbb8	-0.09081215
154	0xbc57ae4b	-0.013164113
155	0x3de7b237	0.11313289
156	0x3c83c86d	0.016086781
157	0xbdd7b933	-0.10533371
158	0x3d9648e3	0.07338121
159	0x3cc7b902	0.02438021
160	0xbc3f467d	-0.011674521
161	0xbc2eeb1b	-0.010676171
162	0xbc0ca16d	-0.008583409
163	0xbc52209b	-0.012825157
164	0xbdb9a918	-0.09065455
165	0xbe2b19a3	-0.16708998
166	0x3d8fd6a7	0.070233636
167	0xbde9e23e	-0.114201054
168	0x3bf97397	0.0076126563
169	0xbe5cc51c	-0.21559566
170	0xbe4f98cd	-0.20273133
171	0x3dc2136d	0.094763614
172	0xbcb043e1	-0.021516742
173	0xbce17945	-0.027523646
174	0x3dd8012e	0.105471
175	0x3d145f07	0.036223438
176	0x3d72f5da	0.059316494
177	0xbe4bcb8b	-0.19901864
178	0xbe03dc1f	-0.12876938
179	0x3d5ae5cc	0.053441808
180	0xbe1ddf75	-0.15417273
181	0x3e1dd8ad	0.15414687
182	0x3caec194	0.02133254
183	0xbd63ce41	-0.05561662
184	0x3d8bacdd	0.068200804
185	0xbd9e879c	-0.07740709
186	0xbbe92342	-0.0071147988
187	0xbd5dc25b	-0.05414043
188	0x3df799e7	0.120899014
189	0x3e54e57a	0.20790663
190	0xbd445015	-0.047927935
191	0x3d9eed51	0.07760108
192	0xbbad720c	-0.0052931365
193	0x3e096dfe	0.13420865
194	0x3d556168	0.052094847
195	0x3d5eddd8	0.054410785
196	0x3d7e96b9	0.06215546
197	0xbc77e629	-0.015130558
198	0xbd2b7271	-0.041857187
199	0x3ca7cb1f	0.020482598
200	0xbe15204f	-0.14563106
201	0xbd69b30b	-0.057055514
202	0x3b4f5280	0.0031634867
203	0xbdb46cad	-0.08809791
204	0xbcd6470a	-0.026156921
205	0x3d8b5429	0.06803162
206	0xbd8745e1	-0.06605125
207	0xbdded3f9	-0.10880274
208	0x3dfcdb80	0.12346554
209	0x3df10090	0.117676854
210	0x3db085ab	0.08619245
211	0xbc5a910d	-0.013340247
212	0xbdca37aa	-0.09873898
213	0x3d9e3c1a	0.07726307
214	0xbdf058ae	-0.11735664
215	0xbda8d268	-0.08243257
216	0xbe58e651	-0.21181609
217	0x3c0bd512	0.008534687
218	0xbe1f89ac	-0.15579861
219	0xbd932f85	-0.07186798
220	0xbd90bfcb	-0.070678316
221	0xbe67451e	-0.2258496
222	0x3e28fe66	0.16503295
223	0xbcef8054	-0.029235996
224	0xbd260656	-0.040533386
225	0xbe2b8302	-0.16749194
226	0x3d7c6664	0.061621085
227	0xbbc7e4b7	-0.006100263
228	0x3e01b429	0.12666382
229	0x3dfc36b0	0.12315118
230	0x3e2d7ba4	0.16941696
231	0xbdd87716	-0.10569589
232	0x3a952d72	0.0011381342
233	0x3e63bd4f	0.22240184
234	0x3ced4a06	0.028965961
235	0x3e774360	0.24146795
236	0x3cb4ea0e	0.022084262
237	0xbdce6e30	-0.1007961
238	0xbd80d170	-0.06289947
239	0xbe137ad3	-0.14402322
240	0xbe495b2c	-0.19663686
241	0xbd9d5726	-0.07682638
242	0x3d847752	0.06468071
243	0xbe019bd7	-0.12657104
244	0x3da8c7ca	0.08241232
245	0x3cb89414	0.022531547
246	0xbe1e4340	-0.15455341
247	0x3d82abb9	0.0638041
248	0xbdc3167d	-0.09525774
249	0x3d919b04	0.07109645
250	0xbdaeafa1	-0.08529592
251	0x3df0ee4a	0.117642
252	0x3c46d435	0.012135555
253	0x3c8c4604	0.01712323
254	0x3c9732c9	0.018456833
255	0x3cde34a3	0.027124709

network_body._body_endoder.seq_layers.2.bias f4 [128]
0	0x00000000	0.0
1	0x00000000	0.0
2	0x00000000	0.0
3	0x00000000	0.0
4	0x00000000	0.0
5	0x00000000	0.0
6	0x00000000	0.0
7	0x00000000	0.0
8	0x00000000	0.0
9	0x00000000	0.0
10	0x00000000	0.0
11	0x00000000	0.0
12	0x00000000	0.0
13	0x00000000	0.0
14	0x00000000	0.0
15	0x00000000	0.0
16	0x00000000	0.0
17	0x00000000	0.0
18	0x00000000	0.0
19	0x00000000	0.0
20	0x00000000	0.0
21	0x00000000	0.0
22	0x00000000	0.0
23	0x00000000	0.0
24	0x00000000	0.0
25	0x00000000	0.0
26	0x00000000	0.0
27	0x00000000	0.0
28	0x00000000	0.0
29	0x00000000	0.0
30	0x00000000	0.0
31	0x00000000	0.0
32	0x00000000	0.0
33	0x00000000	0.0
34	0x00000000	0.0
35	0x00000000	0.0
36	0x00000000	0.0
37	0x00000000	0.0
38	0x00000000	0.0
39	0x00000000	0.0
40	0x00000000	0.0
41	0x00000000	0.0
42	0x00000000	0.0
43	0x00000000	0.0
44	0x00000000	0.0
45	0x00000000	0.0
46	0x00000000	0.0
47	0x00000000	0.0
48	0x00000000	0.0
49	0x00000000	0.0
50	0x00000000	0.0
51	0x00000000	0.0
52	0x00000000	0.0
53	0x00000000	0.0
54	0x00000000	0.0
55	0x00000000	0.0
56	0x00000000	0.0
57	0x00000000	0.0
58	0x00000000	0.0
59	0x00000000	0.0
60	0x00000000	0.0
61	0x00000000	0.0
62	0x00000000	0.0
63	0x00000000	0.0
64	0x00000000	0.0
65	0x00000000	0.0
66	0x00000000	0.0
67	0x00000000	0.0
68	0x00000000	0.0
69	0x00000000	0.0
70	0x00000000	0.0
71	0x00000000	0.0
72	0x00000000	0.0
73	0x00000000	0.0
74	0x00000000	0.0
75	0x00000000	0.0
76	0x00000000	0.0
77	0x00000000	0.0
78	0x00000000	0.0
79	0x00000000	0.0
80	0x00000000	0.0
81	0x00000000	0.0
82	0x00000000	0.0
83	0x00000000	0.0
84	0x00000000	0.0
85	0x00000000	0.0
86	0x00000000	0.0
87	0x00000000	0.0
88	0x00000000	0.0
89	0x00000000	0.0
90	0x00000000	0.0
91	0x00000000	0.0
92	0x00000000	0.0
93	0x00000000	0.0
94	0x00000000	0.0
95	0x00000000	0.0
96	0x00000000	0.0
97	0x00000000	0.0
98	0x00000000	0.0
99	0x00000000	0.0
100	0x00000000	0.0
101	0x00000000	0.0
102	0x00000000	0.0
103	0x00000000	0.0
104	0x00000000	0.0
105	0x00000000	0.0
106	0x00000000	0.0
107	0x00000000	0.0
108	0x00000000	0.0
109	0x00000000	0.0
110	0x00000000	0.0
111	0x00000000	0.0
112	0x00000000	0.0
113	0x00000000	0.0
114	0x00000000	0.0
115	0x00000000	0.0
116	0x00000000	0.0
117	0x00000000	0.0
118	0x00000000	0.0
119	0x00000000	0.0
120	0x00000000	0.0
121	0x00000000	0.0
122	0x00000000	0.0
123	0x00000000	0.0
124	0x00000000	0.0
125	0x00000000	0.0
126	0x00000000	0.0
127	0x00000000	0.0

action_model._discrete_distribution.branches.0.weight f4 [3, 128]
0	0xb943901b	-0.00018650333
1	0xbb1c82ed	-0.0023881749
2	0x3be9be5b	0.007133288
3	0xbbfef8d0	-0.0077811256
4	0xba63d35a	-0.00086908566
5	0x3bb7429d	0.0055926577
6	0x3b3ab7e3	0.0028490953
7	0xbb07442b	-0.0020639997
8	0x3c91d879	0.017803418
9	0x3be5ebcb	0.007016634
10	0x3b5c5cc8	0.0033624638
11	0xbc38bdb3	-0.011275697
12	0x3af88182	0.0018959495
13	0xbb53ea4a	-0.0032335692
14	0xbbfcf6fa	-0.0077198716
15	0x3c282164	0.010261867
16	0xbc0db9ee	-0.008650286
17	0x3bec2e9b	0.0072077042
18	0xbb9ac3fe	-0.004723071
19	0xbc30d1f1	-0.010792241
20	0xbc1f685c	-0.009729471
21	0xbb23bd27	-0.002498457
22	0xbba85ac3	-0.0051377728
23	0xbac37412	-0.0014911911
24	0xbc605cd8	-0.013694011
25	0x3c4250e1	0.011860103
26	0xbb711907	-0.00367886
27	0xbba839ae	-0.005133829
28	0x3ac1c513	0.0014783464
29	0xbb1d88f3	-0.0024037927
30	0x3c009eac	0.00785033
31	0x3c49338b	0.012280355
32	0x3c0f929f	0.008762985
33	0xbbcca343	-0.0062450483
34	0xbc7a1807	-0.015264518
35	0x3be3f95a	0.0069572153
36	0xba578220	-0.0008220989
37	0xbb76b32f	-0.0037643423
38	0x3c6ad1d5	0.014332254
39	0x3bee146d	0.0072656185
40	0x3c08116c	0.008304935
41	0x3bb94737	0.0056542414
42	0xbac25707	-0.0014826962
43	0xba8e4413	-0.0010854028
44	0xbbd9f0da	-0.006651026
45	0x3c0a4b13	0.008440751
46	0xbba0e7a0	-0.0049104244
47	0xbc4d737b	-0.01253974
48	0xbb94fe20	-0.0045468956
49	0xbb982f1f	-0.004644289
50	0x3bee4b72	0.0072721774
51	0x3b53dc13	0.003232722
52	0xbb71c360	-0.0036890134
53	0xbbd616ea	-0.0065334933
54	0xbb8f94ca	-0.0043817507
55	0x3c8de2a3	0.017319983
56	0x3b98faa1	0.004668549
57	0x3c582815	0.01319315
58	0x3c5f95ca	0.013646552
59	0xb9d03553	-0.0003971258
60	0x3ba0cb6c	0.0049070623
61	0x3c0a100e	0.008426679
62	0x3b5c938b	0.0033657278
63	0xbc4a4da3	-0.012347612
64	0x3c087ff3	0.008331287
65	0xbbe3d8d0	-0.0069533363
66	0xbc2f238c	-0.010689627
67	0xbb76b4af	-0.0037644317
68	0xbc25b42d	-0.010113758
69	0x3bb847f9	0.005623814
70	0xbbf5c0bd	-0.007499783
71	0x3ade3ae8	0.0016954811
72	0xbb242a6f	-0.0025049706
73	0xbb98791e	-0.00465311
74	0xbc27c0b7	-0.010238818
75	0xbbe02b25	-0.0068410807
76	0xba6355c8	-0.0008672145
77	0xbbb1d8d2	-0.0054274583
78	0x392bec70	0.0001639591
79	0x3bd2e17d	0.0064355717
80	0x3c81da5b	0.01585119
81	0xbbdb3e95	-0.00669081
82	0x3a753b10	0.00093548093
83	0xbb8aed5f	-0.0042397226
84	0x3b9232bf	0.004461616
85	0xbb9a1f6f	-0.004703454
86	0x3c4bf69e	0.012448935
87	0x3c6dfa72	0.014525043
88	0x3c72bfa0	0.014816195
89	0xbbb1089d	-0.005402638
90	0x3c01908d	0.007907999
91	0x3c6a66e5	0.0143067585
92	0xbc0caf1b	-0.00858667
93	0x3bf4ef4b	0.007474815
94	0x3c28e215	0.010307808
95	0xbbb041db	-0.0053789443
96	0x3c65930b	0.014012109
97	0x3a279949	0.00063933857
98	0xbbdf36d3	-0.0068119555
99	0x3c6fcf22	0.014636787
100	0xbc5a8267	-0.013336754
101	0xbbbcd22f	-0.0057623605
102	0x3bd6a5a2	0.0065505067
103	0xbc4f1997	-0.012640378
104	0xbc8fef09	-0.017570036
105	0xbc639423	-0.013890299
106	0x3bb12a53	0.005406657
107	0xbc28d1df	-0.010303943
108	0xbbbee289	-0.005825345
109	0xbc9eafcb	-0.019370934
110	0x3c1b0d74	0.009463657
111	0x3a31cef8	0.0006782855
112	0x3c656df3	0.014003265
113	0xbc29940d	-0.010350239
114	0xbca71cc8	-0.020399466
115	0xbbf35148	-0.007425461
116	0xbab04abf	-0.001345001
117	0xbb7f04c3	-0.003891275
118	0x3c40f337	0.011776737
119	0xba99e0eb	-0.0011740004
120	0x3b78b8ad	0.0037951872
121	0xbb65a515	-0.0035041024
122	0xbc017003	-0.007900241
123	0x3b5601d8	0.0032654908
124	0x3be5f760	0.007018015
125	0xbbebdc17	-0.0071978676
126	0xbb4744eb	-0.0030406069
127	0xbba72da2	-0.0051018754
128	0xbbcdb05f	-0.0062771286
129	0xbc14aba8	-0.009074129
130	0x3b44162a	0.0029920437
131	0x3b30fda3	0.0027006648
132	0xbc01da16	-0.007925531
133	0x3beba4bf	0.00719127
134	0x3954a7c8	0.00020280399
135	0x3bc03365	0.0058655017
136	0xbb212e49	-0.0024594238
137	0xbc3568f2	-0.011072384
138	0x3bb01a53	0.005374232
139	0xbbdb5ac7	-0.006694171
140	0xbc1caf67	-0.009563304
141	0x3b832017	0.004001628
142	0x3bda3bfd	0.006659983
143	0xbc532b3d	-0.012888727
144	0xbc03ec6f	-0.008051976
145	0x3a4c1573	0.00077851786
146	0x3c0996fc	0.008397814
147	0xbb8e336c	-0.004339626
148	0x3c00e6aa	0.007867495
149	0xba902700	-0.0010997951
150	0x3a05a883	0.00050986576
151	0x3c4cc12f	0.01249723
152	0xbc6e2262	-0.014534565
153	0xb986abf3	-0.00025686584
154	0x3c12b04d	0.008953166
155	0x3b6bbea7	0.0035971792
156	0x3bbf7c0e	0.005843646
157	0x3c238dc3	0.009982529
158	0x3c711b48	0.014715977
159	0xbb709a88	-0.0036713202
160	0xbc59a3e0	-0.0132837
161	0xbac4f669	-0.0015027049
162	0xbb9b169f	-0.0047329213
163	0x3c02140d	0.007939351
164	0xbb3e2ccf	-0.0029018407
165	0xbbc81307	-0.006105784
166	0xb9cb2277	-0.00038744856
167	0xb9f25ab3	-0.00046225413
168	0x3cbbd985	0.02293087
169	0x3b478821	0.003044613
170	0xbb8a742e	-0.0042252755
171	0xb6e3151a	-6.7675837e-06
172	0xbc017003	-0.007900241
173	0xbb651fc2	-0.0034961556
174	0xbbadf94b	-0.005309259
175	0xbc5e8f88	-0.013584025
176	0x39e8b942	0.00044388516
177	0x3c34e3f0	0.011040673
178	0x3b8f1bff	0.004367351
179	0x3c21be57	0.009872041
180	0x3bb2407e	0.005439817
181	0x3c93fe3b	0.018065562
182	0xb9ba4f13	-0.000355356
183	0x3c16890f	0.009187951
184	0xbb849e33	-0.004047179
185	0xbbffdadd	-0.007808073
186	0xbc01f25c	-0.007931318
187	0x3b89ecb6	0.0042091263
188	0xba4398ae	-0.0007461411
189	0xbaf71e25	-0.0018853588
190	0x3b229da0	0.002481319
191	0x3b892b43	0.0041860654
192	0xbbda4b50	-0.00666181
193	0x3c0ff550	0.008786514
194	0x3c383ada	0.0112445
195	0xbbc78303	-0.006088616
196	0xba8e8823	-0.0010874312
197	0xbbae8cf3	-0.005326861
198	0xbb48178c	-0.0030531613
199	0xbb6628d3	-0.0035119548
200	0xbc553dbf	-0.01301521
201	0xbba627e8	-0.005070675
202	0xbcca4abb	-0.024693837
203	0xbb7d8167	-0.0038681866
204	0x3c368316	0.011139652
205	0x3b9cd920	0.0047866255
206	0x3bdcc5f2	0.006737464
207	0x3c01479f	0.007890611
208	0x3bf2bcbf	0.007407754
209	0xbc144543	-0.009049716
210	0x3c1b830b	0.009491692
211	0x3c100e0b	0.008792411
212	0xbbd63772	-0.0065373713
213	0x3adbdb73	0.0016773775
214	0x3ce87558	0.028376266
215	0xbc7d8068	-0.015472509
216	0x3c9743a0	0.018464863
217	0xbb8892cd	-0.0041678906
218	0x3c301c34	0.010748912
219	0xbb68581a	-0.0035452903
220	0x3b8bf124	0.0042706896
221	0xbc93a4e5	-0.018022964
222	0xbc02e169	-0.007988312
223	0x3c482604	0.012216095
224	0x3b5fbea2	0.0034140726
225	0xbca4e45e	-0.020128425
226	0xbba32139	-0.0049783257
227	0x3c558060	0.013031095
228	0xbb4935c3	-0.003070221
229	0xbb00f8bf	-0.0019679514
230	0x3a13fe2a	0.00056454784
231	0xbb6624bb	-0.0035117108
232	0xbb01c9a4	-0.0019804025
233	0xbc3b80a0	-0.011444241
234	0xbc7819f7	-0.015142909
235	0xbbdc4a03	-0.00672269
236	0x3bebefc2	0.007200212
237	0x3aee8fa8	0.0018200772
238	0x3b2df13b	0.002654149
239	0x3c557dcb	0.01303048
240	0x3c4e7017	0.0125999665
241	0x3ccfb22f	0.02535352
242	0xbc4b94d0	-0.012425616
243	0x3c042dc8	0.008067556
244	0x38cdf30a	9.820431e-05
245	0x3c23e0e6	0.01000235
246	0xbc0c0d80	-0.0085481405
247	0xbb33846a	-0.0027392157
248	0xbc27881b	-0.010225321
249	0xbaa1e46c	-0.00123514
250	0x3c115e18	0.008872531
251	0xbc2e9f3a	-0.01065808
252	0x3b58c57b	0.0033076692
253	0xbb726d2f	-0.0036991348
254	0x3ac9f3d7	0.0015407753
255	0x3cd95f50	0.026534706

action_model._discrete_distribution.branches.0.bias f4 [3]
0	0x00000000	0.0
1	0x00000000	0.0
2	0x00000000	0.0

network_body._body_endoder.seq_layers.0.weight f4 [128, 3]
0	0x3f85e7bf	1.0461348
1	0x3f32aa2c	0.6979091
2	0x3e3d12b6	0.18464169
3	0xbed6fa38	-0.41987777
4	0xbef664bf	-0.48123738
5	0x3e82f85a	0.25580102
6	0x3f7f097c	0.99623847
7	0xbee2e665	-0.44316402
8	0xbd444c02	-0.04792405
9	0xbefc955f	-0.4933271
10	0x3ecadf31	0.39623407
11	0xbdd8ed7f	-0.10592174
12	0x3dab9a2d	0.08379016
13	0x3e913bed	0.28366032
14	0x3f17d1f1	0.5930472
15	0xbed46c08	-0.4148867
16	0xbe8e347a	-0.2777441
17	0xbe8d704c	-0.27624738
18	0xbd30b2c4	-0.043139234
19	0x3f93e020	1.1552773
20	0x3d88e2be	0.06683873
21	0xbe23e0c8	-0.16003716
22	0xbf8acbfa	-1.0843499
23	0xbc72ec02	-0.014826776
24	0xbee8654e	-0.4538979
25	0xbec38fc6	-0.38195628
26	0xbfeb76b2	-1.8395598
27	0x3eb73192	0.35780007
28	0xbf6372ca	-0.8884703
29	0x3e2afe34	0.16698533
30	0x3daa69b8	0.083209455
31	0xbf20c018	-0.6279311
32	0x3ed6a932	0.4192596
33	0x3f8f620f	1.12018
34	0xbdcef1b1	-0.10104693
35	0xbffe0ff3	-1.9848617
36	0x3e601564	0.2188316
37	0x3edd619f	0.4323854
38	0xbd9f1f7c	-0.07769677
39	0x3e8da0e2	0.27661806
40	0xbe1179f1	-0.14206673
41	0xbf6063a5	-0.87652045
42	0x3d185397	0.037189092
43	0xbe68e777	-0.22744547
44	0x3f4c42ae	0.79789245
45	0x3e01099d	0.12601323
46	0xbe94e7eb	-0.2908319
47	0xbec731fc	-0.38905323
48	0xbe258ee2	-0.16167787
49	0xbec72a9d	-0.388997
50	0x3dd8a073	0.10577478
51	0xbdecc853	-0.11561646
52	0x3f041536	0.51594865
53	0xbe928c1b	-0.28622517
54	0xbe2ab751	-0.16671492
55	0x3ece69c4	0.40315068
56	0x3c94c5bf	0.018160699
57	0x3de25846	0.11051993
58	0x3eb7705c	0.3582791
59	0xbe0ec068	-0.13940585
60	0x3e41feac	0.18944806
61	0xbe691f61	-0.22765876
62	0xbf71edc6	-0.9450344
63	0xbd7c16a3	-0.061545026
64	0x3f2a28ce	0.66468513
65	0x3e50ea1f	0.2040181
66	0x3f640749	0.89073616
67	0x3e374ebc	0.17901129
68	0xbd348cb2	-0.04407949
69	0xbed5d8ba	-0.41766912
70	0x3c09f866	0.008421039
71	0x3e5fd930	0.21860194
72	0xbe868990	-0.26276827
73	0x3d567e5d	0.052366603
74	0xbf99818c	-1.199266
75	0xbfa8d4a0	-1.3189888
76	0x3e07a28d	0.13245602
77	0x3e8e4bd8	0.2779224
78	0xbd35d204	-0.04438974
79	0x3d911b48	0.070852816
80	0xbf7af95b	-0.98036736
81	0x3cf100b7	0.029419286
82	0x3d572e16	0.052534185
83	0xbf47619a	-0.77883303
84	0x3ea9102f	0.3302016
85	0xbf055f71	-0.5209876
86	0x3e135213	0.14386778
87	0xbde834a6	-0.11338167
88	0xbf03ca23	-0.5148031
89	0xbd9aea72	-0.07564248
90	0x3c80c95c	0.015721016
91	0xbdcdbd5f	-0.10045885
92	0xbe4c215f	-0.19934605
93	0xbef041c7	-0.46925184
94	0x3d98c7df	0.074599974
95	0xbe3465eb	-0.17617004
96	0x3f3daee1	0.7409497
97	0x3e98efe6	0.29870528
98	0x3ec465ea	0.38359004
99	0xbe31168c	-0.17293757
100	0x3da779eb	0.08177551
101	0xbe024df6	-0.12725052
102	0xbecc957a	-0.39957792
103	0x3eb814ad	0.35953274
104	0xbe87f0c9	-0.26550892
105	0x3e266d2e	0.16252586
106	0xbf102227	-0.5630211
107	0xbd62bb63	-0.055354487
108	0x3fe3b6c5	1.7790152
109	0xbde91bdf	-0.11382269
110	0xbf248818	-0.6427016
111	0xbe1a0eb1	-0.15044667
112	0xbee54ac8	-0.44783616
113	0xbdeac387	-0.11463075
114	0x3edd4867	0.432193
115	0xbe0f59a3	-0.13999037
116	0xbe00d1fd	-0.12580104
117	0xbe9c9066	-0.30578917
118	0xbe547dfb	-0.20751183
119	0x3ebc8365	0.36818996
120	0x3e97b640	0.29631233
121	0xbd06ba66	-0.032892607
122	0xbc9aa078	-0.018875346
123	0xbceca92a	-0.028889257
124	0xbe099775	-0.13436683
125	0xbf07be7a	-0.5302502
126	0x3f1dcc11	0.61639506
127	0x3e91866d	0.2842287
128	0xbe8ba6f2	-0.27275807
129	0xbf18edff	-0.59738153
130	0xbf1f14e6	-0.62141263
131	0xbe79bf0d	-0.24389286
132	0xbd96f416	-0.073707744
133	0x3fa132e2	1.2593653
134	0xbf59efa4	-0.8513129
135	0x3e5096cf	0.20370029
136	0x3ecdfc6d	0.40231648
137	0x3d6e2c4e	0.05814772
138	0xbf189b27	-0.59611744
139	0x3eb2d75b	0.34929928
140	0x3e4823e2	0.19544938
141	0x3dcaebaa	0.099082306
142	0xbf076095	-0.5288175
143	0x3cd03bda	0.025419164
144	0xbe7a4325	-0.24439676
145	0xbe68f311	-0.22748972
146	0xbe62e97a	-0.22159377
147	0x3c3026bf	0.010751425
148	0xbe82d6c4	-0.25554478
149	0xbf14c5d4	-0.5811436
150	0x3e98bc4d	0.29831162
151	0xbf2085f3	-0.6270439
152	0x3e1f838e	0.15577528
153	0xbde2393d	-0.110460736
154	0x3eb5de13	0.35520992
155	0x3eb008fe	0.3438186
156	0x3df2fa55	0.11864153
157	0x3eada78b	0.33916888
158	0x3f80c36b	1.0059637
159	0x3c8e4f5d	0.017371828
160	0x3ca7b604	0.020472534
161	0x3e9697af	0.294126
162	0x3ec764c2	0.3894406
163	0xbed33193	-0.4124876
164	0xbf338b23	-0.7013418
165	0xbe3bca2b	-0.1833884
166	0x3f085add	0.53263646
167	0xbf8ebb3d	-1.115089
168	0x3e897b46	0.26851863
169	0xbfaa23ae	-1.3292139
170	0xbf319402	-0.69366467
171	0xbe7814df	-0.24226712
172	0xbf191a0b	-0.59805363
173	0x3edc03e1	0.4297171
174	0xbf09cdca	-0.53829634
175	0x3f9ff1d3	1.2495674
176	0x3c943ac0	0.01809442
177	0xbe130685	-0.14357956
178	0x3f4ae98e	0.79262626
179	0xbf10cdc3	-0.5656397
180	0x3ee776ea	0.45207912
181	0xbd5270a0	-0.05137694
182	0xbf2a6312	-0.6655742
183	0x3db5fbfc	0.08885953
184	0x3f6e1b0f	0.9301004
185	0xbf965977	-1.1746053
186	0x3f08d2e3	0.5344679
187	0xbf376cce	-0.716504
188	0x3f503af0	0.8133993
189	0x3f00ea08	0.50357103
190	0x3ebc2e1b	0.36753926
191	0xbe855a58	-0.2604549
192	0xbdca97b9	-0.0989222
193	0x4000c8ac	2.012248
194	0xbe70a97d	-0.23502155
195	0xbf10fe5e	-0.56638134
196	0x3f4af30a	0.792771
197	0xbbd45382	-0.0064796815
198	0xbe2ade0d	-0.16686268
199	0xbe092dd6	-0.13396391
200	0x3f0875ea	0.5330492
201	0xbf1f1898	-0.621469
202	0x3f2d516f	0.6770238
203	0xbf81d460	-1.0142937
204	0xbf72f494	-0.94904447
205	0xbf2c3e96	-0.67283
206	0xbfc68c81	-1.5511628
207	0xbebd306e	-0.3695101
208	0x3e9946ee	0.29936928
209	0xbda951d3	-0.0826756
210	0x3eedbbfb	0.4643248
211	0xbe2045a6	-0.15651569
212	0x3ed2dad8	0.4118259
213	0x3f56038f	0.8359918
214	0xbf613892	-0.87976944
215	0xbedc95e5	-0.4308311
216	0x3fb00328	1.3750963
217	0x3f156f8c	0.5837333
218	0xbfa6d309	-1.3033153
219	0xbe3c0235	-0.18360217
220	0x3ea28730	0.31743765
221	0xbe0ef22e	-0.13959572
222	0xbf256c85	-0.6461871
223	0x3e855f9d	0.2604951
224	0x3dc7ea96	0.097615406
225	0xbebd9b41	-0.37032512
226	0xbf007fab	-0.50194806
227	0x3db9b2a3	0.090672754
228	0x3f02aad6	0.51041925
229	0x3f16e85b	0.58948296
230	0xbe5f44f2	-0.21803644
231	0x3dfb8e9d	0.12283061
232	0xbdb9d315	-0.09073464
233	0x3ee8fdb3	0.45506057
234	0xbea02ecf	-0.31285712
235	0x3ea1a15e	0.31568426
236	0xbeb66bb1	-0.35629037
237	0x3ead7daa	0.33884937
238	0xbf02eb42	-0.51140225
239	0x3d58246c	0.05276911
240	0x3f842f37	1.0326909
241	0xbd4acda2	-0.049512513
242	0x3f4b6cd5	0.7946294
243	0x3f02c073	0.51074904
244	0xbef54925	-0.47907367
245	0xbebebc34	-0.37252963
246	0x3e7a59cf	0.24448322
247	0x3e097b5b	0.13425963
248	0x3f14ee68	0.5817628
249	0xbeaf84d8	-0.3428104
250	0xbe75beb8	-0.23998535
251	0x3f1f064c	0.62118983
252	0x3f97f208	1.1870737
253	0xbcb598c6	-0.022167575
254	0xbf1c89e6	-0.61147916
255	0x3e2afee1	0.16698791

network_body._body_endoder.seq_layers.0.bias f4 [128]
0	0x00000000	0.0
1	0x00000000	0.0
2	0x00000000	0.0
3	0x00000000	0.0
4	0x00000000	0.0
5	0x00000000	0.0
6	0x00000000	0.0
7	0x00000000	0.0
8	0x00000000	0.0
9	0x00000000	0.0
10	0x00000000	0.0
11	0x00000000	0.0
12	0x00000000	0.0
13	0x00000000	0.0
14	0x00000000	0.0
15	0x00000000	0.0
16	0x00000000	0.0
17	0x00000000	0.0
18	0x00000000	0.0
19	0x00000000	0.0
20	0x00000000	0.0
21	0x00000000	0.0
22	0x00000000	0.0
23	0x00000000	0.0
24	0x00000000	0.0
25	0x00000000	0.0
26	0x00000000	0.0
27	0x00000000	0.0
28	0x00000000	0.0
29	0x00000000	0.0
30	0x00000000	0.0
31	0x00000000	0.0
32	0x00000000	0.0
33	0x00000000	0.0
34	0x00000000	0.0
35	0x00000000	0.0
36	0x00000000	0.0
37	0x00000000	0.0
38	0x00000000	0.0
39	0x00000000	0.0
40	0x00000000	0.0
41	0x00000000	0.0
42	0x00000000	0.0
43	0x00000000	0.0
44	0x00000000	0.0
45	0x00000000	0.0
46	0x00000000	0.0
47	0x00000000	0.0
48	0x00000000	0.0
49	0x00000000	0.0
50	0x00000000	0.0
51	0x00000000	0.0
52	0x00000000	0.0
53	0x00000000	0.0
54	0x00000000	0.0
55	0x00000000	0.0
56	0x00000000	0.0
57	0x00000000	0.0
58	0x00000000	0.0
59	0x00000000	0.0
60	0x00000000	0.0
61	0x00000000	0.0
62	0x00000000	0.0
63	0x00000000	0.0
64	0x00000000	0.0
65	0x00000000	0.0
66	0x00000000	0.0
67	0x00000000	0.0
68	0x00000000	0.0
69	0x00000000	0.0
70	0x00000000	0.0
71	0x00000000	0.0
72	0x00000000	0.0
73	0x00000000	0.0
74	0x00000000	0.0
75	0x00000000	0.0
76	0x00000000	0.0
77	0x00000000	0.0
78	0x00000000	0.0
79	0x00000000	0.0
80	0x00000000	0.0
81	0x00000000	0.0
82	0x00000000	0.0
83	0x00000000	0.0
84	0x00000000	0.0
85	0x00000000	0.0
86	0x00000000	0.0
87	0x00000000	0.0
88	0x00000000	0.0
89	0x00000000	0.0
90	0x00000000	0.0
91	0x00000000	0.0
92	0x00000000	0.0
93	0x00000000	0.0
94	0x00000000	0.0
95	0x00000000	0.0
96	0x00000000	0.0
97	0x00000000	0.0
98	0x00000000	0.0
99	0x00000000	0.0
100	0x00000000	0.0
101	0x00000000	0.0
102	0x00000000	0.0
103	0x00000000	0.0
104	0x00000000	0.0
105	0x00000000	0.0
106	0x00000000	0.0
107	0x00000000	0.0
108	0x00000000	0.0
109	0x00000000	0.0
110	0x00000000	0.0
111	0x00000000	0.0
112	0x00000000	0.0
113	0x00000000	0.0
114	0x00000000	0.0
115	0x00000000	0.0
116	0x00000000	0.0
117	0x00000000	0.0
118	0x00000000	0.0
119	0x00000000	0.0
120	0x00000000	0.0
121	0x00000000	0.0
122	0x00000000	0.0
123	0x00000000	0.0
124	0x00000000	0.0
125	0x00000000	0.0
126	0x00000000	0.0
127	0x00000000	0.0

network_body._body_endoder.seq_layers.2.weight f4 [128, 128]
0	0xbddc8569	-0.107676335
1	0x3cda75f8	0.02666758
2	0x3dcdff30	0.10058439
3	0x3d2b7b32	0.041865535
4	0x3e0b3ada	0.13596669
5	0xbe044615	-0.12917359
6	0xbb589a38	-0.0033050906
7	0xbe29fee1	-0.16601135
8	0x3d240280	0.040041447
9	0x3d85f2ec	0.06540474
10	0x3cb45ffb	0.022018423
11	0x3d1202e2	0.03564728
12	0xbdf52fe7	-0.11972027
13	0x3b26bc48	0.0025441814
14	0xbce506ca	-0.027957339
15	0xbd62a095	-0.055328924
16	0x3dc45eba	0.0958838
17	0xbcbdf621	-0.023188652
18	0x3c72f4e0	0.014828891
19	0x3db5b557	0.088724785
20	0x3e38a04f	0.18029903
21	0xbdc5cea9	-0.09658558
22	0x3e022483	0.1270924
23	0xbbb85513	-0.005625376
24	0x3cb6e0dd	0.02232402
25	0xbb80b6df	-0.00392805
26	0x3bcaf5ab	0.0061938367
27	0x3dced100	0.10098457
28	0x3e34e4cf	0.17665409
29	0x3d0968a7	0.03354707
30	0xbd4b0abc	-0.049570784
31	0xbd84abc8	-0.06478077
32	0x3d4f2058	0.050567955
33	0xbdc4908a	-0.09597881
34	0xbd29d790	-0.041465342
35	0xbcf9aa44	-0.030476697
36	0xbd882c16	-0.06649034
37	0x3e038ace	0.12845919
38	0xbdafaced	-0.08577905
39	0x3d5db5be	0.0541284
40	0x3ce7f042	0.028312806
41	0x3d1f616b	0.038911264
42	0xbcdd6474	-0.027025439
43	0xbc06c5d3	-0.008225876
44	0x3a008b12	0.00049035356
45	0x3cb5793c	0.022152536
46	0x3d49160d	0.049093295
47	0x3e0e5600	0.13899994
48	0x3d55c21d	0.052187074
49	0x3de6762f	0.112530105
50	0xbce95453	-0.028482592
51	0x3df7a7f2	0.1209258
52	0xbd571ac9	-0.05251578
53	0x3dc505c3	0.096202396
54	0xbd35ecaa	-0.044415154
55	0x3dc80e0e	0.09768306
56	0x3c6e075a	0.01452812
57	0xbb82bd0c	-0.0039898213
58	0xbcde95f3	-0.02717111
59	0x3e8438bc	0.25824535
60	0xbdaeba8d	-0.085316755
61	0x3d6e574e	0.05818873
62	0xbc9bb21e	-0.019005831
63	0x3d912328	0.07086784
64	0x3de8a039	0.11358685
65	0xbcd99a45	-0.02656282
66	0x3be0cf0a	0.0068606185
67	0xbe2f109e	-0.17096183
68	0xbbf48931	-0.0074626436
69	0x3e1911d9	0.14948215
70	0x3e159f1d	0.14611478
71	0xbc980d00	-0.018560886
72	0xbd467aa7	-0.048456814
73	0xbd942314	-0.07233253
74	0xbd9da939	-0.07698292
75	0x3c820272	0.015870307
76	0x3db9f80f	0.090805165
77	0xbe447cd6	-0.19188246
78	0x3a43b525	0.00074656523
79	0x3d3fdfad	0.046844173
80	0xbcaf36b9	-0.021388398
81	0x3e0cc320	0.1374631
82	0xbdbc2d51	-0.09188331
83	0x3c8ac240	0.016938329
84	0xbd7d872c	-0.061896488
85	0x3dd43427	0.1036151
86	0xbd268ec9	-0.040663514
87	0xbde0db56	-0.10979335
88	0xbca664a3	-0.02031166
89	0xbd3f2c50	-0.04667312
90	0xbc94bc0c	-0.018156074
91	0xbdf9ed29	-0.12203438
92	0x3d2a6558	0.041600555
93	0xbe2bcb01	-0.16776659
94	0xbca8026c	-0.020508967
95	0xbd9301d1	-0.07178081
96	0xbd47edb8	-0.04881069
97	0xbc9a569b	-0.018840125
98	0x3d99ae80	0.07503986
99	0xbc7acbbb	-0.015307362
100	0x3e20d8e2	0.15707734
101	0x38a18431	7.701701e-05
102	0xbcfce529	-0.03087099
103	0x3a9f3806	0.0012147434
104	0xbd99481a	-0.074844554
105	0x3ab11bb8	0.0013512289
106	0x3c23ea36	0.010004571
107	0x3e03f72b	0.12887256
108	0xbb1fd655	-0.0024389226
109	0x3e6e857d	0.23293109
110	0xbd140bb4	-0.036143973
111	0x3ce862d1	0.028367432
112	0xbdbf84b9	-0.09351487
113	0xbcc68acd	-0.024236107
114	0x3caa49f8	0.020787224
115	0xbd95592e	-0.072924
116	0xbc16d9ee	-0.009207232
117	0x3c0e0fa3	0.00867072
118	0x3e1bdbfe	0.15220639
119	0x3e14c4d6	0.14528212
120	0x3d4bfb47	0.049800184
121	0x3d04158b	0.032247107
122	0xbd5db09e	-0.054123513
123	0x3d632b28	0.05546108
124	0xbe360d87	-0.17778598
125	0xbcfefb6f	-0.031125752
126	0x3d0819b7	0.03322765
127	0x3b0e4f34	0.002171469
128	0xbd9461ea	-0.07245238
129	0xbde1df9e	-0.1102898
130	0x3c1eb671	0.009687052
131	0xbcd810eb	-0.026375255
132	0xbdbb9c84	-0.09160712
133	0xbda11d0d	-0.07866869
134	0x3d85ba1b	0.065296374
135	0x3dceaf44	0.10092023
136	0xbc8e3e92	-0.01736382
137	0xbd820fe7	-0.063506894
138	0x3d42464d	0.047430325
139	0x3d65617d	0.056001175
140	0x3e1a2fc8	0.1505729
141	0xbc6f57fa	-0.014608378
142	0xbd9a768b	-0.075421415
143	0x3cbd7fef	0.023132293
144	0x3ca68f49	0.020331996
145	0x3e19e9f3	0.15030651
146	0x3b8f32ce	0.00437007
147	0xbd5d7826	-0.05406966
148	0x3d668172	0.056275792
149	0xbd18adc1	-0.03727508
150	0x3e1bea10	0.15226007
151	0x3ca3765c	0.0199539
152	0x3afa3562	0.0019089396
153	0x3d6dca4d	0.058054257
154	0xbd8a28cc	-0.06746063
155	0x3c009922	0.00784901
156	0x3dd2de66	0.102963254
157	0xbd623b7f	-0.05523252
158	0x3d1e2ee1	0.038618926
159	0x3d096242	0.03354097
160	0x3ceb5201	0.028725626
161	0xbdf5d6c3	-0.12003853
162	0xbd5eb68b	-0.054373305
163	0xbd5dc3b5	-0.05414172
164	0xbe5344ff	-0.20631789
165	0xbd9d6fee	-0.076873645
166	0x3d359cd1	0.044339005
167	0x3bf8d263	0.0075934394
168	0xbc12ee4e	-0.008967949
169	0xbd8d8a65	-0.06911162
170	0xbd59c6d7	-0.053168144
171	0x3d8aa637	0.06769984
172	0xbda9cc97	-0.082909755
173	0x3e01e0a2	0.12683347
174	0xbe217cc7	-0.15770255
175	0x3e338ecc	0.17534941
176	0xbce4daf2	-0.027936433
177	0x3da272f1	0.079320796
178	0x3ccbeb50	0.02489248
179	0xbd0c5217	-0.034257974
180	0x3ccc4973	0.024937367
181	0x3ca651c5	0.020302663
182	0x3d93cd32	0.07216872
183	0x3d2390c2	0.039932974
184	0x3cb842ef	0.022492854
185	0xbdab79ee	-0.083728656
186	0x3d67ed9f	0.056623098
187	0xbd88e927	-0.06685095
188	0xbdb581b1	-0.08862627
189	0xbd860c5c	-0.06545326
190	0x3da6ced9	0.08144922
191	0x3daaa760	0.083327055
192	0xbdc1f759	-0.09471006
193	0xbd851565	-0.06498221
194	0xbde771d4	-0.11301008
195	0x3e3a13fe	0.18171689
196	0xbc88072d	-0.016604984
197	0xbdf118a3	-0.11772277
198	0x3da77dd7	0.08178299
199	0x3c326b50	0.010889843
200	0x3d335dfd	0.043790806
201	0xbd90e87a	-0.070755914
202	0xbd8e9146	-0.069613025
203	0xbd46fe0b	-0.048582118
204	0xbd83372c	-0.064070076
205	0x3d1173d5	0.035510857
206	0x3dc879af	0.09788834
207	0xbd9ee27f	-0.077580445
208	0xbdadcb50	-0.084860444
209	0xbdc50d8f	-0.09621727
210	0x3e173762	0.1476722
211	0xbd45bb4f	-0.048274335
212	0xbe03f13c	-0.12884992
213	0x3c690d1b	0.014224316
214	0xbd699745	-0.057029027
215	0x3d9fbceb	0.07799705
216	0xbda0961c	-0.07841131
217	0xbd148127	-0.03625598
218	0x3de8872c	0.11353907
219	0xbc74e5a6	-0.014947331
220	0xbdf0d95b	-0.11760207
221	0x3d277a19	0.040887926
222	0xbd1f522b	-0.03889672
223	0xbe42824f	-0.18995021
224	0xbe0a4e48	-0.13506424
225	0xbe304644	-0.17214304
226	0x3cb8684f	0.022510676
227	0xbdb2f060	-0.08737254
228	0x3d078f22	0.033095486
229	0xbcd22845	-0.025653968
230	0x3d06f5fd	0.032949436
231	0xbdc241a2	-0.09485175
232	0x3d615991	0.055017058
233	0x3c27bb34	0.010237504
234	0x3e208c7f	0.15678595
235	0x3c1468dd	0.0090582045
236	0xbc90930c	-0.017648242
237	0xbdda23ad	-0.10651336
238	0xbdb9b32e	-0.09067379
239	0xbd52bf6e	-0.051452093
240	0x3cb57183	0.022148853
241	0x3cd65647	0.026164187
242	0x3c48c29c	0.01225343
243	0xbb03fdf2	-0.0020140377
244	0x3d54c2ce	0.051943593
245	0x3d3871df	0.04503047
246	0x3da106e5	0.07862643
247	0x3d63423d	0.05548309
248	0xbd80a029	-0.06280548
249	0xbc2521e4	-0.010078881
250	0xbd261c7a	-0.0405545
251	0x3c396581	0.011315704
252	0xbd9dcc5e	-0.077049956
253	0xbe18e2b0	-0.14930224
254	0xbd8fb24a	-0.07016428
255	0xbc050c98	-0.008120678

network_body._body_endoder.seq_layers.2.bias f4 [128]
0	0x00000000	0.0
1	0x00000000	0.0
2	0x00000000	0.0
3	0x00000000	0.0
4	0x00000000	0.0
5	0x00000000	0.0
6	0x00000000	0.0
7	0x00000000	0.0
8	0x00000000	0.0
9	0x00000000	0.0
10	0x00000000	0.0
11	0x00000000	0.0
12	0x00000000	0.0
13	0x00000000	0.0
14	0x00000000	0.0
15	0x00000000	0.0
16	0x00000000	0.0
17	0x00000000	0.0
18	0x00000000	0.0
19	0x00000000	0.0
20	0x00000000	0.0
21	0x00000000	0.0
22	0x00000000	0.0
23	0x00000000	0.0
24	0x00000000	0.0
25	0x00000000	0.0
26	0x00000000	0.0
27	0x00000000	0.0
28	0x00000000	0.0
29	0x00000000	0.0
30	0x00000000	0.0
31	0x00000000	0.0
32	0x00000000	0.0
33	0x00000000	0.0
34	0x00000000	0.0
35	0x00000000	0.0
36	0x00000000	0.0
37	0x00000000	0.0
38	0x00000000	0.0
39	0x00000000	0.0
40	0x00000000	0.0
41	0x00000000	0.0
42	0x00000000	0.0
43	0x00000000	0.0
44	0x00000000	0.0
45	0x00000000	0.0
46	0x00000000	0.0
47	0x00000000	0.0
48	0x00000000	0.0
49	0x00000000	0.0
50	0x00000000	0.0
51	0x00000000	0.0
52	0x00000000	0.0
53	0x00000000	0.0
54	0x00000000	0.0
55	0x00000000	0.0
56	0x00000000	0.0
57	0x00000000	0.0
58	0x00000000	0.0
59	0x00000000	0.0
60	0x00000000	0.0
61	0x00000000	0.0
62	0x00000000	0.0
63	0x00000000	0.0
64	0x00000000	0.0
65	0x00000000	0.0
66	0x00000000	0.0
67	0x00000000	0.0
68	0x00000000	0.0
69	0x00000000	0.0
70	0x00000000	0.0
71	0x00000000	0.0
72	0x00000000	0.0
73	0x00000000	0.0
74	0x00000000	0.0
75	0x00000000	0.0
76	0x00000000	0.0
77	0x00000000	0.0
78	0x00000000	0.0
79	0x00000000	0.0
80	0x00000000	0.0
81	0x00000000	0.0
82	0x00000000	0.0
83	0x00000000	0.0
84	0x00000000	0.0
85	0x00000000	0.0
86	0x00000000	0.0
87	0x00000000	0.0
88	0x00000000	0.0
89	0x00000000	0.0
90	0x00000000	0.0
91	0x00000000	0.0
92	0x00000000	0.0
93	0x00000000	0.0
94	0x00000000	0.0
95	0x00000000	0.0
96	0x00000000	0.0
97	0x00000000	0.0
98	0x00000000	0.0
99	0x00000000	0.0
100	0x00000000	0.0
101	0x00000000	0.0
102	0x00000000	0.0
103	0x00000000	0.0
104	0x00000000	0.0
105	0x00000000	0.0
106	0x00000000	0.0
107	0x00000000	0.0
108	0x00000000	0.0
109	0x00000000	0.0
110	0x00000000	0.0
111	0x00000000	0.0
112	0x00000000	0.0
113	0x00000000	0.0
114	0x00000000	0.0
115	0x00000000	0.0
116	0x00000000	0.0
117	0x00000000	0.0
118	0x00000000	0.0
119	0x00000000	0.0
120	0x00000000	0.0
121	0x00000000	0.0
122	0x00000000	0.0
123	0x00000000	0.0
124	0x00000000	0.0
125	0x00000000	0.0
126	0x00000000	0.0
127	0x00000000	0.0

value_heads.value_heads.extrinsic.weight f4 [1, 128]
0	0xbe376ecd	-0.17913361
1	0x3dd6fbf8	0.10497278
2	0xbe023426	-0.12715206
3	0x3d1f7db0	0.038938224
4	0x3d873658	0.06602162
5	0x3e228a6e	0.15873119
6	0xbd89ce38	-0.06728786
7	0x3e20e028	0.15710509
8	0xbe3b1fd9	-0.18273868
9	0x3ddb128c	0.10696897
10	0x3e2a4936	0.1662949
11	0xbe0533e4	-0.13008076
12	0x3d9e4c8c	0.07729444
13	0x3c68d090	0.014209881
14	0x3d7ec948	0.062203676
15	0x3d52c360	0.051455855
16	0x3e18a260	0.14905691
17	0x3c9d8880	0.019230127
18	0x3cfc7610	0.030818015
19	0x3b936f00	0.004499316
20	0xbe3f892e	-0.18704674
21	0xbe0ed1ac	-0.13947171
22	0x3d4af2e8	0.04954806
23	0x3e3914aa	0.18074289
24	0xbd628d68	-0.055310637
25	0x3def1ee0	0.11675811
26	0x3e22f0be	0.15912148
27	0xbd939718	-0.07206553
28	0x3e1ab896	0.15109476
29	0x3de4c39c	0.11170122
30	0x3d39b368	0.04533711
31	0xbe32e402	-0.1746979
32	0x3ddfd334	0.10928956
33	0xbd8f1e3c	-0.069881886
34	0x3e015432	0.12629774
35	0xbdbfd694	-0.093670994
36	0x3bf93820	0.0076055676
37	0xbd3bc474	-0.04584165
38	0xbe1b65a2	-0.15175489
39	0x3e2bffc2	0.16796783
40	0xbdd74286	-0.10510735
41	0xbda3c1a6	-0.0799592
42	0xbd832558	-0.06403607
43	0x3d78fa30	0.060785472
44	0x3e2a6280	0.16639137
45	0x3dbbd064	0.09170607
46	0x3dc7aa34	0.097492605
47	0x3e24b89e	0.16086051
48	0x3e1a0fec	0.15045136
49	0x3c6b4920	0.014360696
50	0xbda612f2	-0.08109082
51	0xbe453601	-0.19258882
52	0xbe0d2366	-0.13783035
53	0x3e556c2e	0.20842049
54	0x3dc74ffc	0.09732053
55	0xbc3583f0	-0.01107882
56	0xbcf39310	-0.02973321
57	0xbd0d11d0	-0.034440815
58	0x3e4a9ae6	0.19785652
59	0xbe19687a	-0.14981261
60	0xbbffcd20	-0.007806435
61	0x3db49c50	0.08818877
62	0xbdf0ae95	-0.11752049
63	0xbe15c584	-0.14626127
64	0x3ba96c20	0.00517036
65	0xbe1bf767	-0.15231095
66	0x3c6c7da0	0.014434248
67	0xbb1b6ac0	-0.002371475
68	0x3cfa4de8	0.030554727
69	0xbe1b3d3b	-0.15160076
70	0xbd4a84f8	-0.049443215
71	0x3e17d1ce	0.14826128
72	0xbc901618	-0.01758866
73	0xbd337ae0	-0.043818355
74	0xbcbce050	-0.02305618
75	0x3e046202	0.12928012
76	0x3e12bdc2	0.143302
77	0x3c85f768	0.016353324
78	0x3df7f6a8	0.12107593
79	0x3d1af0a8	0.037827164
80	0x3cd84428	0.026399687
81	0x3e33d8d4	0.17563182
82	0x3c0d48f0	0.008623347
83	0xbe3ebf2a	-0.18627611
84	0x3db48000	0.088134766
85	0xbe1befc1	-0.15228178
86	0xbd33688c	-0.043800876
87	0x3d849c1c	0.06475088
88	0xbda981d2	-0.082767144
89	0xbbe37e20	-0.0069425255
90	0xbd98da74	-0.074635416
91	0x3e029720	0.12752962
92	0xbe438d85	-0.19096954
93	0xbdf80233	-0.121097945
94	0x3e195730	0.14974666
95	0xbe20992c	-0.1568343
96	0xbe017f4c	-0.12646216
97	0x3e0e3774	0.13888341
98	0xbdddcc36	-0.10829966
99	0x3dbda850	0.09260619
100	0x3e3a976c	0.18221825
101	0xbe4cca99	-0.1999916
102	0xbd24a048	-0.04019192
103	0x3dc1a580	0.09455395
104	0x3e4454aa	0.19172922
105	0xbc410510	-0.011780992
106	0x3e402880	0.1876545
107	0x3d15b6f0	0.036551416
108	0x3debb418	0.115089595
109	0x3ce4ac18	0.027914092
110	0xbdf3bd2a	-0.119013146
111	0x3d0ceec0	0.034407377
112	0x3c0ba650	0.008523539
113	0xbe0434f8	-0.12910831
114	0x3dff4924	0.12465122
115	0xbe41904f	-0.18902706
116	0x3e3031ba	0.17206469
117	0xbe3b3129	-0.18280472
118	0xbc5ac2c0	-0.013352096
119	0x3da1aa44	0.07893804
120	0x3de05fa4	0.10955742
121	0x3e1c2e76	0.15252098
122	0xbe58a0ea	-0.21155134
123	0xbdd22ae5	-0.10262088
124	0xbe485772	-0.19564608
125	0x3e551c62	0.20811608
126	0x3da047ac	0.0782617
127	0xbc432630	-0.01191096
